MINST/results/model.pth (torch, 89935 bytes, 8 tensors)

conv1.weight f4 [10, 1, 5, 5]
0	0x3ea68ec9	0.3253081
1	0x3da2f40e	0.07956706
2	0xbcc344a3	-0.02383644
3	0x3dcc4f01	0.09976006
4	0xbe8a677c	-0.27032077
5	0x3e6b0aef	0.2295339
6	0x3e1c0017	0.1523441
7	0xbb8ff996	-0.0043937666
8	0xbe8267c5	-0.25469795
9	0xbd03f080	-0.03221178
10	0x3e3b5ea7	0.18297826
11	0x3e07230f	0.13196968
12	0x3e9d3784	0.30706418
13	0x3ca3b79b	0.01998501
14	0x3e402eb0	0.1876781
15	0xbdae5026	-0.08511381
16	0x3df82644	0.121166736
17	0x3e478801	0.19485475
18	0x3e7ed762	0.2488685
19	0x3d937d42	0.072016254
20	0x3d369922	0.044579633
21	0x3d06f202	0.03294564
22	0x3e7cc912	0.24686077
23	0x3e724fdf	0.23663281
24	0x3e1476fb	0.14498512
25	0x3df26df4	0.11837378
26	0x3eacf497	0.33780357
27	0xbd381e2f	-0.04495066
28	0xbd4046ef	-0.046942648
29	0x3cd6d8c9	0.026226418
30	0x3d8ea648	0.069653094
31	0x3e67d54c	0.2263996
32	0xbe263aa8	-0.16233313
33	0xbe886579	-0.26639917
34	0xbe3f449e	-0.18678519
35	0x3ec0ee63	0.37681875
36	0x3d93a8e9	0.072099514
37	0xbd7d7904	-0.061882988
38	0xbe83d2f2	-0.25746876
39	0xbe947701	-0.28997043
40	0x3ebcff72	0.3691364
41	0x3ea207f5	0.31646696
42	0x3d20c808	0.039253265
43	0xbe558b17	-0.2085384
44	0x3d0b6ec8	0.034041196
45	0x3e63d450	0.2224896
46	0x3e0aeb07	0.13566218
47	0xbd3bb6af	-0.045828518
48	0xbe603d69	-0.21898426
49	0xbdd992f0	-0.10623729
50	0x3d21477a	0.039374806
51	0xbe174034	-0.14770585
52	0x3e6a0f44	0.22857386
53	0xbcb2e259	-0.021836447
54	0xbdf6bb9b	-0.12047502
55	0xbcf2379f	-0.029567538
56	0xbe2ba8d0	-0.16763616
57	0x3da9f8f3	0.082994364
58	0x3e2670c7	0.16253959
59	0xbe42d27c	-0.19025606
60	0xbe2e84b8	-0.17042816
61	0x3ddb4096	0.10705678
62	0x3e3c6846	0.18399152
63	0x3e2d6f9b	0.16937105
64	0x3daaa64a	0.08332498
65	0x3dff8b46	0.12477736
66	0xbe884abd	-0.2661952
67	0x3e0406de	0.12893245
68	0x3ded9e58	0.11602467
69	0x3e716db4	0.23577005
70	0xbe1b1560	-0.15144873
71	0xbe99e3c0	-0.30056572
72	0xbe20c950	-0.15701795
73	0xbddc4997	-0.10756224
74	0x3e4e2b22	0.20133641
75	0xbe1546d0	-0.14577794
76	0xbeb26dde	-0.34849447
77	0xbec98aca	-0.393637
78	0xbe3fb0e7	-0.18719827
79	0xbe20e73b	-0.15713207
80	0xbc8e1b03	-0.017346865
81	0xbe04c6b1	-0.1296642
82	0x3e01b000	0.12664795
83	0x3e8648d2	0.26227432
84	0x3ea0fb7e	0.31441873
85	0x3d1084fb	0.03528307
86	0x3eb3aa99	0.35091093
87	0x3eb31b55	0.3498179
88	0x3ec8b2ce	0.39198917
89	0x3e8d27ea	0.27569515
90	0x3df2dbc1	0.11858321
91	0x3e05d778	0.13070476
92	0xbdb51e8f	-0.08843719
93	0x3ddb81f6	0.107181475
94	0x3dcd172a	0.10014184
95	0xbd683fe4	-0.056701556
96	0xba4a08bb	-0.00077069894
97	0x3e172fe1	0.14764358
98	0xbd904719	-0.07044811
99	0x3de87bf8	0.1135177
100	0x3e6f8352	0.23389938
101	0x3e4cf034	0.20013505
102	0x3ec50fe8	0.38488698
103	0x3e82fdbd	0.25584212
104	0xbda2a6f2	-0.079419985
105	0xbd429de2	-0.04751385
106	0x3e8a956a	0.2706712
107	0x3dbba2f1	0.09161938
108	0x3edc45f4	0.4302212
109	0x3ef1bd30	0.4721465
110	0xbe5cec5b	-0.21574537
111	0x3d9eef7a	0.0776052
112	0xbba767d1	-0.0051088114
113	0xbda7c2ef	-0.081914775
114	0x3dbacafb	0.09120747
115	0xbe33b7cc	-0.17550582
116	0xbe778c4f	-0.24174617
117	0xbd1a421b	-0.0376607
118	0xbe1493e2	-0.14509538
119	0x3e0999db	0.13437597
120	0xbec16f40	-0.3778019
121	0xbebefba2	-0.37301356
122	0xbed39670	-0.41325712
123	0xbe2e8227	-0.17041837
124	0xbe5d84d3	-0.216327
125	0x3d394b20	0.04523766
126	0xbe8a5dc0	-0.2702465
127	0x3d710bc0	0.058849096
128	0x3e03c770	0.12869048
129	0x3d81ee66	0.06344299
130	0xbe9ba22c	-0.30397165
131	0xbe716b17	-0.23576008
132	0xbe61d886	-0.22055253
133	0x3e7f77ef	0.24948095
134	0x3ea43d0a	0.3207782
135	0xbe93f323	-0.28896436
136	0xbe00cde0	-0.12578535
137	0xbd18ad63	-0.03727473
138	0x3e001f4e	0.12511942
139	0x3e5ff02e	0.21868965
140	0xbeb60b10	-0.35555315
141	0xbe8de59f	-0.2771425
142	0xbaf28b0f	-0.0018504577
143	0x3ec30bc4	0.38094914
144	0x3e835d47	0.25657102
145	0xbd5d6674	-0.054052785
146	0xbe09f404	-0.13471991
147	0x3da92d10	0.08260548
148	0x3e8c0cf6	0.27353638
149	0x3e67c173	0.22632389
150	0x3e4081d8	0.18799531
151	0x3ecb71e4	0.3973533
152	0x3ebbfb79	0.36715296
153	0x3ec48bab	0.38387808
154	0x3cfb337b	0.030664196
155	0xbe07531c	-0.13215297
156	0xbe2936bf	-0.1652479
157	0xbd9d13b5	-0.076697744
158	0xbcfbd477	-0.03074096
159	0xbcb58c6b	-0.022161683
160	0xbea34db8	-0.31895232
161	0xbe5db6b4	-0.21651727
162	0xbe49a061	-0.19690086
163	0xbe0ae037	-0.13562094
164	0x3d81c5e5	0.063365735
165	0xbdeb5953	-0.114916466
166	0xbe91cf6c	-0.28478563
167	0xbe85374c	-0.2601875
168	0xbd56f548	-0.052480012
169	0xbd9bcd21	-0.076074846
170	0x3ca3c5fe	0.019991871
171	0x3e9ee60f	0.31034896
172	0x3db45e59	0.08807058
173	0xbd0944bb	-0.033512812
174	0xbd485a9a	-0.04891453
175	0xbe362109	-0.1778604
176	0xbe48986f	-0.19589399
177	0xbe28b85f	-0.16476582
178	0x3e136be7	0.1439663
179	0xbd42bf8b	-0.04754595
180	0x3e0d85a1	0.13820507
181	0xbd914131	-0.070925124
182	0xbe114641	-0.14186956
183	0x3da1e65e	0.07905267
184	0x3da87ed2	0.08227314
185	0xbdd6cd74	-0.10488406
186	0xbda834c6	-0.08213191
187	0xbdb0c6b5	-0.0863165
188	0x3ca926f5	0.020648459
189	0x3e92a8ed	0.28644505
190	0x3de21ddf	0.11040854
191	0xbde2ea1c	-0.11079809
192	0xbe3ac46b	-0.1823899
193	0x3e0e270f	0.13882087
194	0x3e43e6b3	0.19130974
195	0xbc79cdf6	-0.015246859
196	0xbe3b5f80	-0.18298149
197	0x3d2e16aa	0.042502083
198	0xbe0408f1	-0.12894036
199	0x3c94e64a	0.018176217
200	0xbd42f821	-0.047599915
201	0xbba94e32	-0.0051667923
202	0x3e3abe42	0.1823664
203	0x3e4f247d	0.20228763
204	0xbe59eec0	-0.21282482
205	0xbddd1fa9	-0.10797054
206	0x3ebea368	0.37234044
207	0x3dca082a	0.098648384
208	0x3e647e4e	0.22313806
209	0x3dc253db	0.094886504
210	0x3e8ac57b	0.2710379
211	0x3eca9887	0.39569494
212	0x3e80b5d2	0.25138718
213	0xbe3dc72a	-0.18533006
214	0x3e3166b2	0.17324331
215	0x3d2f4027	0.04278579
216	0x3dbafc10	0.09130108
217	0xbcd9c9f6	-0.02658556
218	0xbe0434fe	-0.1291084
219	0xbe4ee59e	-0.2020478
220	0xbe409fcc	-0.18810958
221	0xbcedca9c	-0.029027276
222	0xbe9309c5	-0.2871839
223	0xbe54cd77	-0.20781504
224	0xbe04ebd9	-0.12980594
225	0x3d95f75f	0.07322573
226	0x3dfea3d7	0.12433594
227	0x3e155224	0.14582115
228	0x3dd3f1a0	0.10348821
229	0x3e92fa18	0.2870643
230	0x3e0f16eb	0.13973586
231	0x3e3aecf5	0.18254454
232	0x3e07d7fe	0.13265988
233	0x3e4677a2	0.19381574
234	0x3e298ee2	0.16558412
235	0x3d84d28c	0.06485471
236	0x3e81a7dc	0.2532338
237	0xbdbb8452	-0.091560975
238	0x3c9a0c20	0.01880461
239	0xbe4aa2d0	-0.1978867
240	0x3e682626	0.22670802
241	0xbd8efeff	-0.069822304
242	0xbe1a30ab	-0.15057628
243	0xbe352fa7	-0.17693959
244	0xbe8d5609	-0.27604702
245	0x3e42b1b3	0.190131
246	0x3c21d3a0	0.0098771155
247	0x3dbd3f38	0.09240574
248	0x3a8cc095	0.0010738546
249	0x3daab249	0.083347864

conv1.bias f4 [10]
0	0x3bc4e40f	0.006008632
1	0x3da7fc06	0.082023665
2	0xbe4a86c0	-0.19777966
3	0x3e2c7111	0.16840006
4	0x3e88e6ee	0.26738685
5	0x3d805edd	0.06268094
6	0x3ce10acf	0.027470974
7	0xbe0d0bf5	-0.13774092
8	0x3e993207	0.2992098
9	0x3d7c6b2c	0.061625645

conv2.weight f4 [20, 10, 5, 5]
0	0x3d193698	0.03740558
1	0x3bcf5254	0.006326953
2	0x3d2e9310	0.04262072
3	0x3cdb3f84	0.026763685
4	0x3d310d84	0.04322578
5	0x3d5778a1	0.052605275
6	0xbd94145d	-0.072304465
7	0xbc5e7104	-0.01357675
8	0xbc9102fc	-0.017701618
9	0xbd6bdca2	-0.05758346
10	0xbc91c1fc	-0.017792694
11	0xbd81981f	-0.06327843
12	0xbc98abe7	-0.018636657
13	0xbc93462c	-0.017977796
14	0xbd9b8394	-0.07593456
15	0x3d9d6d42	0.07686855
16	0x3cd24aff	0.025670527
17	0x3bcc14e8	0.006228078
18	0xbdb8459c	-0.08997652
19	0x3c22c0ff	0.009933709
20	0xbd16fa9f	-0.036860105
21	0x3c9714bd	0.018442506
22	0x3d713e01	0.058897022
23	0x3d9681fd	0.07349012
24	0xbb0788b1	-0.002068084
25	0xbd035985	-0.032067794
26	0xbc396d26	-0.011317527
27	0x3de43587	0.11143022
28	0xbbb7f05f	-0.0056133713
29	0x3c2d66a8	0.010583557
30	0xbd95166f	-0.072796695
31	0xbcafc6fa	-0.021457184
32	0x3cb3dfd9	0.021957325
33	0x3bfc2543	0.0076948716
34	0xbd44117b	-0.047868233
35	0x3cab6521	0.020922245
36	0x3ce509c2	0.027958754
37	0xbc95f514	-0.018305339
38	0xbd5ac6fd	-0.053412426
39	0xbda28cdc	-0.07937023
40	0x3b87e6c6	0.0041473834
41	0xbd1bccf4	-0.038037255
42	0x3c8eb12e	0.01741847
43	0xbd1b89a6	-0.03797307
44	0xbdee3a52	-0.116322175
45	0xbc18e9d4	-0.009333093
46	0x3d57233e	0.052523844
47	0x3c50f496	0.012753626
48	0xbbf08a3c	-0.0073406976
49	0xbc2de0f1	-0.010612712
50	0x3d7f979a	0.062400438
51	0xbd9485c7	-0.072520785
52	0xbc94e45a	-0.018175293
53	0xbd017ff3	-0.031616163
54	0xbc8c433b	-0.017121902
55	0xbd8884d3	-0.06665959
56	0x3c086687	0.008325226
57	0x3c460ff2	0.012088763
58	0xbd4c7f78	-0.04992625
59	0xbd292c44	-0.04130198
60	0xbc8fb34c	-0.01754155
61	0x3c5abe5d	0.01335105
62	0xbd6228ed	-0.05521481
63	0xbd8f793c	-0.070055455
64	0xbcad99eb	-0.021191558
65	0x3d98a9f3	0.0745429
66	0x3cb9a1fa	0.022660244
67	0xbc426032	-0.011863755
68	0x3d3d97a8	0.04628721
69	0xbda1a780	-0.07893276
70	0x3da9771a	0.0827467
71	0x3d50749a	0.05089245
72	0x3d9c2f18	0.0762617
73	0x3be679d0	0.007033564
74	0x3d4c2a67	0.049845126
75	0x3d25c313	0.04046924
76	0x3cb32075	0.021866063
77	0xbd1660ab	-0.036713284
78	0xbd9bf999	-0.07615966
79	0x3c902253	0.017594492
80	0xba1c81ce	-0.000597027
81	0xbc8727b5	-0.016498426
82	0x3d636168	0.055512816
83	0x3d7babb9	0.061443064
84	0x3e193d2b	0.1496474
85	0x3d1dc782	0.038520344
86	0xbdb6b943	-0.089220546
87	0x3d096cff	0.033551212
88	0xbbf24852	-0.007393875
89	0x3b67df44	0.003538088
90	0xbd0ae690	-0.033911288
91	0xbdb2dbb7	-0.087333135
92	0xbe19206d	-0.14953776
93	0xbe13035b	-0.14356749
94	0xbd87d486	-0.066323325
95	0xbbf4545a	-0.0074563446
96	0xbbc46aa6	-0.005994159
97	0x3d8673c0	0.06565046
98	0x3d179bbb	0.03701375
99	0x3de6013a	0.11230703
100	0xbc0f7b7e	-0.00875747
101	0x3cbbb505	0.022913465
102	0xbd6061de	-0.054780833
103	0xbd178972	-0.036996312
104	0x3a07d23f	0.00051811704
105	0xbdda53cc	-0.10660514
106	0xbb7ded6b	-0.0038746248
107	0xbcee0d4b	-0.029059073
108	0x3d35cbfa	0.04438398
109	0x3da6469b	0.08118936
110	0x3d8f9461	0.07010723
111	0x3d9deb65	0.077109136
112	0x3e11f770	0.14254546
113	0x3e0b8e9c	0.1362862
114	0x3d822957	0.06355541
115	0xbbb03120	-0.00537695
116	0x3962874f	0.00021603446
117	0x3c40baab	0.011763255
118	0x3d640a81	0.05567408
119	0xbe0083f7	-0.1255034
120	0xbc9a9764	-0.018871017
121	0xbc8f1f30	-0.017470926
122	0xbdc14be2	-0.094383016
123	0xbcb3739e	-0.021905717
124	0xbd522bd9	-0.051311348
125	0x3cb6e729	0.022327023
126	0xbbb0eafb	-0.0053991056
127	0xba07caa8	-0.00051800394
128	0x3dd8baa7	0.10582476
129	0x3d7e3501	0.062062267
130	0x3d0baf93	0.034102987
131	0xbda5d1ed	-0.08096681
132	0x3dbbd224	0.091709405
133	0x3d9633ff	0.07334136
134	0xbd3a9da0	-0.04556048
135	0xbd8236c5	-0.06358103
136	0xbe1febc0	-0.15617275
137	0xbd7964d6	-0.06088718
138	0xbe09ed70	-0.13469481
139	0xbe3bdd16	-0.18346056
140	0xbc4b8086	-0.012420779
141	0xbd8381b7	-0.064212255
142	0xbd7eaf7f	-0.062179085
143	0xbc427b6c	-0.011870246
144	0xbda9802e	-0.082764015
145	0x3d61f533	0.05516548
146	0x3d7ff83b	0.06249259
147	0x3d1ab658	0.037771553
148	0xbbbb4fbd	-0.0057162927
149	0xbd31da95	-0.043421347
150	0xba69739d	-0.00089054724
151	0x3c460599	0.0120862955
152	0xbc60a0d6	-0.013710221
153	0xbae5d504	-0.0017534797
154	0xbc20872f	-0.009797855
155	0x3cc2457c	0.023714773
156	0xbdb01d1e	-0.08599304
157	0xbd865a25	-0.065601625
158	0x3cdd0e76	0.026984435
159	0x3bddb9f6	0.006766553
160	0xbd27966c	-0.040914938
161	0xbcc9a7b5	-0.024616102
162	0x3d984c1f	0.07436394
163	0x3d7b7fa7	0.061401036
164	0x3d97aab4	0.07405606
165	0x3d18fbe5	0.0373496
166	0xbd5a4162	-0.05328501
167	0x3b8d9e06	0.0043218164
168	0x3cdb1455	0.026743094
169	0xbc1a43ec	-0.009415608
170	0x3d23e269	0.040010843
171	0xbd4e955a	-0.0504354
172	0xbc4e28bb	-0.012582953
173	0xbc41addd	-0.011821237
174	0xbd406a83	-0.046976577
175	0xbc92aaf6	-0.017903786
176	0x3c9add82	0.018904451
177	0xbd22daa7	-0.039759304
178	0x3d79d710	0.060996115
179	0x3d4e52fd	0.050372113
180	0x3c6a55f1	0.014302717
181	0x3cd1ae2b	0.025595745
182	0x3d1f9455	0.03895982
183	0x3d03efc7	0.03221109
184	0x3d6df9c7	0.058099534
185	0xbd31906b	-0.04335062
186	0xbd40d2ed	-0.047076155
187	0x3d194bff	0.03742599
188	0xbd1baa0b	-0.038003962
189	0xbd495a6b	-0.049158495
190	0xbd0ee4b8	-0.034886092
191	0xbd76795e	-0.06017434
192	0xbda5647d	-0.08075807
193	0xbdb97001	-0.09054566
194	0xbdc3c484	-0.09558967
195	0x3d4f7122	0.050645
196	0x3d8f517f	0.06997966
197	0x3bfe642c	0.0077634063
198	0x3d49dce9	0.049282942
199	0xbba86a6c	-0.0051396396
200	0xbd91aebe	-0.071134076
201	0x3b4fabea	0.0031688162
202	0x3ba86ba9	0.005139787
203	0xbd0aa33a	-0.03384707
204	0x3d7f0d07	0.062268283
205	0xbcebb0a9	-0.028770762
206	0x3daf728e	0.085667714
207	0x3d98b4da	0.0745637
208	0x3d2e7d22	0.042599805
209	0x3d88202a	0.0664676
210	0x3d5ec15b	0.054383617
211	0x3d84dd2b	0.06487497
212	0x3c577711	0.013150946
213	0x3c97ce13	0.018530881
214	0x3d2517d7	0.04030594
215	0xbccbfe55	-0.024901548
216	0xbdb2dc3e	-0.08733414
217	0xbd0756b2	-0.033041663
218	0xbe2791aa	-0.1636416
219	0xbe333bd1	-0.17503287
220	0xbd2eb2c7	-0.042650964
221	0xbcb0cbb5	-0.02158151
222	0xbda5dae1	-0.080983885
223	0xbd9b58bf	-0.07585286
224	0xbc83bda3	-0.016081637
225	0xbcb2cafe	-0.02182531
226	0x3d88a487	0.06672006
227	0x3d97031f	0.07373642
228	0x3c99701c	0.018730216
229	0xbcc76155	-0.024338404
230	0xbd15ada0	-0.036542535
231	0x3c187963	0.009306285
232	0xbca7a441	-0.020464065
233	0xbd1ee3ca	-0.038791455
234	0x3da19c90	0.0789119
235	0x3da44a68	0.08022004
236	0x3dc7065c	0.0971801
237	0x3cadca55	0.021214643
238	0xbcfeee5c	-0.031119518
239	0x3cd96af6	0.02654026
240	0xbd1f65a0	-0.038915277
241	0xbda3aeb0	-0.07992303
242	0xbda9f127	-0.08297949
243	0xbdb247d9	-0.0870511
244	0xb9f6a476	-0.0004704331
245	0xbd134210	-0.035951674
246	0x3c5df034	0.013546038
247	0xbc0c88ec	-0.008577567
248	0x3d0a51a9	0.033769283
249	0x3cb13770	0.02163288
250	0xbd0f2b5c	-0.03495346
251	0xbbe4ae74	-0.0069788042
252	0x3968e28f	0.00022209644
253	0xbd97965f	-0.07401728
254	0xbd206863	-0.03916205
255	0xbb230206	-0.0024873032

conv2.bias f4 [20]
0	0x3d5b544c	0.05354719
1	0xbc52ce02	-0.012866499
2	0xbc675dfd	-0.01412153
3	0xbd566b29	-0.05234829
4	0xbd68f57d	-0.05687474
5	0xbde529fa	-0.11189647
6	0xbcdada16	-0.02671532
7	0x3cadf87d	0.021236653
8	0xbd85bb2a	-0.06529839
9	0xbced47dd	-0.028964931
10	0xbda3666e	-0.07978521
11	0x3b3854d9	0.0028126745
12	0xbce4c59c	-0.027926259
13	0xbc299ed9	-0.010352814
14	0xbd897197	-0.06711119
15	0x3c34053a	0.010987574
16	0xbd8baeaa	-0.06820424
17	0x3d8cd3c7	0.06876331
18	0xbd4f94f8	-0.050679177
19	0xbd52e771	-0.05149025

fc1.weight f4 [50, 320]
0	0xbc455ce8	-0.012046076
1	0x3c22dcd7	0.009940348
2	0x3da2bb98	0.07945937
3	0x3d66c26b	0.056337755
4	0xbcd46646	-0.025927674
5	0x3c7c4ec3	0.015399638
6	0x3cf506e9	0.029910522
7	0xbdc4334c	-0.095800966
8	0x3c659eb9	0.014014893
9	0x3c073127	0.008251465
10	0xbdfa38a7	-0.12217837
11	0xbd8ee90d	-0.06978045
12	0x3d7ac5b3	0.061223697
13	0xbccdc7ee	-0.025119748
14	0xbd0107da	-0.03150163
15	0xbcab9380	-0.020944357
16	0x3d43c8e7	0.047799017
17	0x3d334bcc	0.043773457
18	0xbb3c03b3	-0.0028688728
19	0xbd667e7b	-0.056272965
20	0x3bbc14d1	0.005739786
21	0x3e202beb	0.15641753
22	0x3cf43648	0.02981104
23	0xbd273cc4	-0.040829435
24	0x3cdad2c7	0.026711835
25	0xbd713325	-0.058886666
26	0xbe0324fc	-0.12807077
27	0xbdb5a425	-0.08869199
28	0xbd0824b0	-0.033238113
29	0xbdacd473	-0.08438959
30	0xbbc71fbf	-0.0060767825
31	0xbcb24d35	-0.02176533
32	0xbd81fa08	-0.06346518
33	0x3c6a3a11	0.014296071
34	0x3d1e962a	0.038717426
35	0xbc001021	-0.007816345
36	0x3c83e4fd	0.016100401
37	0x3cf33f36	0.029693227
38	0x3d2436bc	0.04009126
39	0x3dc94e65	0.09829406
40	0x3c3e5d4e	0.011618925
41	0xbcaef2b7	-0.02135597
42	0x3b175609	0.0023092052
43	0xbc5c0116	-0.013427993
44	0xbc12ba39	-0.008955532
45	0xbba2a897	-0.004963945
46	0xbd21e414	-0.039524153
47	0xbd2b6d76	-0.041852437
48	0xbd51cffc	-0.05122374
49	0x3c2cf30e	0.010555996
50	0x3d4e1ffc	0.05032347
51	0x3d55fc1e	0.05224239
52	0xba8cc9c3	-0.0010741282
53	0x3d139877	0.036034074
54	0x3d75f2b0	0.060045898
55	0x3d050f0d	0.032485057
56	0x3c042e5e	0.008067695
57	0xbd1800cd	-0.03711014
58	0x3b318172	0.0027085212
59	0xbd548f01	-0.05189419
60	0x3d2aabf1	0.041667882
61	0xbda47d9a	-0.08031769
62	0x3cfdf743	0.031001693
63	0x3c05f316	0.008175632
64	0x3cc9c0bc	0.024628036
65	0x3c5ba856	0.013406834
66	0x39aafde3	0.00032614087
67	0xbcf79292	-0.030221257
68	0xbcc25eb1	-0.023726793
69	0x3d41e051	0.047333065
70	0xbd32d040	-0.043655634
71	0xbc89a259	-0.016801046
72	0x3b552015	0.0032520343
73	0x3cd278a0	0.025692284
74	0x3cc157c0	0.023601413
75	0xbd34c0b5	-0.044129092
76	0xbd198ab3	-0.03748579
77	0xbd51eb3e	-0.051249735
78	0x3cf07c0f	0.02935603
79	0x3d22de48	0.039762765
80	0x3d559187	0.05214074
81	0x3cb75987	0.022381557
82	0xbcdfe9fa	-0.027333248
83	0xbd44b7ac	-0.048026726
84	0x3d4f12ad	0.05055492
85	0x3ce14419	0.027498292
86	0xbd86fbcd	-0.06590996
87	0xbc268254	-0.010162909
88	0x3ce26a59	0.027638601
89	0xbcb21842	-0.021740083
90	0xbd804479	-0.0626306
91	0x3d9ce36b	0.07660564
92	0xbd29dc60	-0.04146993
93	0xbd074c51	-0.033031765
94	0xbce49ed6	-0.02790777
95	0x3cc009b9	0.023442136
96	0xbd14b1ac	-0.036302254
97	0xbc9e03b3	-0.019288873
98	0x3d1fcd90	0.0390144
99	0x3cb39781	0.021922829
100	0xbb8d16a0	-0.0043056756
101	0xbbbe912e	-0.0058156466
102	0x3d3cad06	0.046063446
103	0x3cde88ef	0.027164904
104	0xbc1d0924	-0.009584699
105	0x3d18693c	0.037209734
106	0xbd82d474	-0.063881785
107	0xbd790d4f	-0.060803708
108	0xbc020689	-0.007936128
109	0xba0753e3	-0.00051623414
110	0xbd8cf244	-0.06882146
111	0xbdbf48ee	-0.09340082
112	0x3bcbf6a8	0.006224472
113	0xbd6ed2a4	-0.05830635
114	0xbdbd6afc	-0.09248921
115	0xbd8616d6	-0.06547324
116	0x3d8148aa	0.06312688
117	0x3d22bda0	0.03973162
118	0xbcd907c7	-0.026492966
119	0x3cd0ee9a	0.0255044
120	0xbc6d7dda	-0.014495337
121	0xbd27e80b	-0.040992778
122	0x3dc6f35f	0.09714388
123	0x3d95cf30	0.073149085
124	0xbce28476	-0.027651053
125	0x3d064707	0.03278258
126	0x3d63eb9a	0.05564461
127	0x3c179462	0.009251686
128	0xbd15a2ed	-0.03653233
129	0x3d14461e	0.03619968
130	0x3d11fe3f	0.03564286
131	0x3de45b99	0.11150283
132	0xbc0a46ad	-0.008439702
133	0x3cf58387	0.029969944
134	0xbd42ef2a	-0.047591366
135	0xb9f842c6	-0.00047351996
136	0x3d04bc5a	0.03240619
137	0xbb6150eb	-0.0034380506
138	0xbda4b701	-0.08042718
139	0xbd0c3bf2	-0.034236856
140	0x3b01775c	0.0019754982
141	0x3ccfa16d	0.025345528
142	0xbd30cd99	-0.043164823
143	0xbc818050	-0.015808254
144	0xbc90bcc2	-0.017668132
145	0x3d0d25c2	0.034459837
146	0x3da5f726	0.081037804
147	0xbc733b3c	-0.014845666
148	0x3cc89ad0	0.024487883
149	0x3cecefd2	0.028922949
150	0xbcd1fb47	-0.025632514
151	0xbc429c9a	-0.011878157
152	0x3d215388	0.039386302
153	0x3c8a39c9	0.016873257
154	0xbda7f00d	-0.08200083
155	0xbc33866b	-0.010957341
156	0x3d3a884f	0.04554015
157	0xbd0553a3	-0.032550465
158	0xbd9351df	-0.0719335
159	0xbd4c9478	-0.04994628
160	0x3d24da41	0.040247206
161	0x3cde7fb8	0.02716051
162	0x3d0a65e9	0.033788595
163	0x3ce1cedf	0.027564464
164	0xbd9348e7	-0.071916394
165	0x3cb95bef	0.022626845
166	0xbd5a6da3	-0.053327214
167	0xbced9c77	-0.029005272
168	0xbda26521	-0.07929445
169	0x3d0a9def	0.033842023
170	0x3c3baefc	0.011455294
171	0xbd834a22	-0.06410624
172	0x3ba03a0d	0.0048897327
173	0x3cbdba7e	0.023160215
174	0xbc197228	-0.009365596
175	0x3cc9b5e5	0.024622867
176	0xbc31ed4e	-0.0108598005
177	0x3cf4b10b	0.029869577
178	0xbc976283	-0.018479591
179	0x3dc4948a	0.09598644
180	0xbb137fd7	-0.0022506618
181	0x3b0ca053	0.0021457865
182	0x3c230051	0.009948806
183	0x3b40a6eb	0.0029396366
184	0x3cf39c3e	0.029737588
185	0xbc84190e	-0.016125228
186	0x3c1d2e99	0.009593629
187	0xbcf96254	-0.030442394
188	0x3d86ccd0	0.06582034
189	0x3b8c4437	0.004280593
190	0xbcafb1c5	-0.021447072
191	0xbcb1c9b1	-0.02170262
192	0x3d8b2cd3	0.06795659
193	0xbd039a07	-0.032129314
194	0xbb72b638	-0.003703488
195	0xbdbbe8e7	-0.09175282
196	0x3d368dba	0.044568755
197	0x3d257707	0.040396716
198	0xbd1b8d55	-0.03797658
199	0x3c39eb32	0.011347579
200	0x3928b8f6	0.00016090632
201	0x3bb9bb7a	0.005668101
202	0xbc491908	-0.012274034
203	0xbb6a0761	-0.0035709965
204	0xbd895ce9	-0.06707174
205	0x3bd315b6	0.006441797
206	0x3c50f62e	0.012754006
207	0xbcaecb89	-0.021337288
208	0x3dc760a0	0.09735227
209	0x3d09227c	0.033480152
210	0xbd867d2b	-0.06566843
211	0xbda906fa	-0.08253284
212	0xbd5e0654	-0.054205254
213	0xbd860567	-0.06543999
214	0xbb9f6b85	-0.0048651122
215	0x3ccc5cd5	0.02494661
216	0xbda73b5b	-0.08165618
217	0xbd1c14b3	-0.038105678
218	0xbbeba8df	-0.007191762
219	0x3dd4e881	0.10395909
220	0xbd0fd72c	-0.035117313
221	0x3cb5823e	0.02215683
222	0x3ba170a6	0.004926759
223	0xbc1f0431	-0.009705589
224	0x3c4d9e8e	0.012550009
225	0x3d6ac5a6	0.0573174
226	0x3bba5c02	0.0056872377
227	0x3c38600f	0.011253371
228	0x3bebc1a0	0.0071947128
229	0xbd090eb4	-0.033461288
230	0xbd3842fe	-0.044985764
231	0xbbaf1b55	-0.0053438344
232	0xbd9198c5	-0.071092166
233	0x3b7a0d33	0.003815484
234	0xbcfe6d8d	-0.031058097
235	0xbd38853d	-0.04504894
236	0xbd42023c	-0.047365412
237	0x3d28b253	0.04118569
238	0x3ccf1d9a	0.02528267
239	0x3d49fb4d	0.049311925
240	0xbc592795	-0.013254066
241	0xbb53f21f	-0.003234036
242	0xbd05b849	-0.03264645
243	0xbc793dd2	-0.015212493
244	0x3d3052c2	0.043047674
245	0x3c758141	0.01498443
246	0xbd2086bc	-0.039190993
247	0xbd885e36	-0.06658594
248	0x3c6a28a9	0.014291921
249	0x3d9c1e8f	0.07623016
250	0x3cdedda5	0.027205298
251	0x3d8d4da4	0.068995744
252	0xbab813f3	-0.0014044031
253	0xbcae3244	-0.021264203
254	0x3c09cf0d	0.008411181
255	0x3cb8629e	0.022507962

fc1.bias f4 [50]
0	0x3d06ff33	0.03295822
1	0xbd0c4a53	-0.03425057
2	0xbd14b32b	-0.03630368
3	0x3c448632	0.011994885
4	0xbd18be36	-0.037290774
5	0x3d1ec560	0.03876245
6	0x3bcbb597	0.0062167156
7	0x3d528c7d	0.05140351
8	0xbc243964	-0.010023449
9	0xbcf104ca	-0.029421229
10	0x3c90aae5	0.017659614
11	0x3c5eaf2d	0.01359157
12	0x3d178921	0.03699601
13	0xba58e501	-0.00082738703
14	0xbc97dd96	-0.018538278
15	0x3bdbbd1c	0.006705893
16	0x3b13b6a8	0.0022539292
17	0x3cb618f2	0.022228692
18	0x3d4458f2	0.047936387
19	0x3d18fec5	0.037352342
20	0x3cc1553a	0.02360021
21	0x3c9280ad	0.017883623
22	0x3d536b91	0.051616255
23	0x3d2c38bd	0.042046297
24	0xbc20b540	-0.009808838
25	0xbd423a1d	-0.047418702
26	0xbd0444c7	-0.032292154
27	0x3cd27d0d	0.025694394
28	0xbcb0ee74	-0.021598078
29	0x3ce5abcb	0.028036019
30	0x3d581e41	0.052763227
31	0xba47c8b3	-0.0007621154
32	0x3d9dfa97	0.07713812
33	0xbd119aee	-0.035548143
34	0x3d97b0a7	0.07406741
35	0x3d9401b3	0.072268866
36	0x3cd0aed0	0.025473982
37	0x3ceb8e36	0.028754335
38	0xbd2a07f2	-0.041511483
39	0x3d568582	0.052373417
40	0x3d433297	0.047655668
41	0x3d363f59	0.044494007
42	0x3b4f5e92	0.0031642062
43	0x3da86cf9	0.0822391
44	0x3d2d713d	0.04234432
45	0x3d9a6934	0.07539597
46	0x3d4731f9	0.048631642
47	0xbb84f633	-0.0040576695
48	0xbc9a23ca	-0.018815894
49	0x3da29e68	0.0794037

fc2.weight f4 [10, 50]
0	0x3e18ed48	0.14934266
1	0x3de2026c	0.11035618
2	0xbdefa9d4	-0.11702314
3	0xbceb7f59	-0.028747248
4	0x3e7853f3	0.24250774
5	0xbe3492f2	-0.1763418
6	0xbdd5e9ae	-0.104449615
7	0x3e359cde	0.17735621
8	0x3c2a3b7c	0.010390159
9	0x3e0166d5	0.12636884
10	0xbe889171	-0.26673463
11	0xbe1596f0	-0.1460836
12	0xbe0e7c00	-0.1391449
13	0x3e2b4c94	0.16728431
14	0xbe514317	-0.20435749
15	0xbe77eabe	-0.24210641
16	0xbe32a5e0	-0.17446089
17	0x3e1fed98	0.15617979
18	0x3dae7ce7	0.08519917
19	0xbc1a9b84	-0.009436492
20	0xbe456d33	-0.19279937
21	0x3e7f61ed	0.249397
22	0xbd8d071e	-0.06886123
23	0xbe263a48	-0.1623317
24	0xbe1100fb	-0.1416053
25	0xbd9592e9	-0.073034115
26	0xbe58ac11	-0.21159388
27	0xbdcfffbb	-0.101561986
28	0xbd4f8a31	-0.0506689
29	0x3e3ac7fc	0.1824035
30	0x3ce3f217	0.027825398
31	0xbe4091b8	-0.18805587
32	0x3cc1cb75	0.023656586
33	0x3e3a043a	0.18165675
34	0xbe048abf	-0.12943552
35	0x3e8eee1e	0.27916044
36	0x3e114182	0.14185145
37	0x3e24d23e	0.16095826
38	0xbda20cca	-0.079125956
39	0xbe0a054c	-0.13478583
40	0x3e3595c2	0.1773291
41	0xbe57f368	-0.21088946
42	0xbdb4abe4	-0.08821848
43	0xbe3a497f	-0.18192099
44	0xbe0797b6	-0.13241467
45	0xbe5f1a3f	-0.21787356
46	0x3d404380	0.046939373
47	0x3e55c0a5	0.2087427
48	0xbd07c3c5	-0.033145685
49	0xbdfc20f0	-0.1231097
50	0xbe031bc0	-0.12803555
51	0xbe874385	-0.264187
52	0x3df19403	0.11795809
53	0x3df544f0	0.119760394
54	0x3e3008e5	0.17190893
55	0xbe6a2493	-0.22865514
56	0x3e0724b6	0.13197598
57	0x3cf0b954	0.029385246
58	0x3dfe775c	0.1242511
59	0x3e3cf43b	0.18452542
60	0x3da262a8	0.079289734
61	0x3e79ee2f	0.24407266
62	0xbbe83bd2	-0.0070872093
63	0xbe939e8c	-0.288319
64	0xbe085244	-0.13312632
65	0xbd03b424	-0.032154217
66	0xbc2b6e8e	-0.01046337
67	0xbe314c32	-0.17314222
68	0xbe0768ae	-0.13223526
69	0xbcb657fd	-0.022258753
70	0x3e1e2a38	0.15445793
71	0xba4646d7	-0.00075636565
72	0x3e43d9b4	0.19126016
73	0xbe0befcc	-0.13665694
74	0x3e3a40b1	0.1818874
75	0x3c94a14e	0.018143322
76	0xbe106d3f	-0.14104174
77	0x3eaab42a	0.3334058
78	0xbe2c607a	-0.16833678
79	0xbe75329f	-0.23945092
80	0xbe041300	-0.12897873
81	0x3e2ca26e	0.16858837
82	0x3e5a9672	0.21346453
83	0xbe0a0944	-0.13480097
84	0x3dc53dc7	0.09630924
85	0x3e076cc2	0.13225082
86	0xbe7a4cfa	-0.24443427
87	0xbea4adaa	-0.32163745
88	0xbdfc9a77	-0.12334149
89	0x3e2225b3	0.15834694
90	0xbe059150	-0.13043714
91	0xbe1b015d	-0.15137239
92	0xbde923d7	-0.11383789
93	0x3db9671a	0.09052868
94	0x3dfdb082	0.12387182
95	0x3e2ca89e	0.16861197
96	0xbe2e5340	-0.17023945
97	0x3e508604	0.20363623
98	0xbe152d2f	-0.14568017
99	0x3e197641	0.14986517
100	0xbde8aa72	-0.11360635
101	0x3d282f93	0.041060995
102	0xbda58e45	-0.080837764
103	0x3e3478dd	0.1762423
104	0xbe1db041	-0.15399267
105	0x3dca5683	0.09879782
106	0xbdd14228	-0.102176964
107	0x3e16a5e3	0.14711718
108	0xbe13840c	-0.1440584
109	0x3e3dd9d7	0.1854013
110	0xbe6a46d1	-0.22878577
111	0xbd44b4ab	-0.04802386
112	0xbe2779a9	-0.16355003
113	0x3d3cdec0	0.04611087
114	0xbdb8f5bd	-0.09031246
115	0xbdaa331e	-0.08310531
116	0x3e504388	0.20338261
117	0xbe6e1ec1	-0.23253919
118	0x3df45e0b	0.11932
119	0xbd7c3114	-0.061570242
120	0x3d8e7ff2	0.069579974
121	0x3e82605a	0.25464135
122	0x3e5fd001	0.21856691
123	0xbe3b3622	-0.18282369
124	0xbd735e60	-0.059416175
125	0x3e6584d2	0.22413948
126	0xbcd5d97c	-0.026104681
127	0xbe0fed67	-0.14055406
128	0xbe35fb1b	-0.1777157
129	0xbd94c08f	-0.0726329
130	0xbdcd1552	-0.10013832
131	0xbe4bddfd	-0.199089
132	0xbe0f4343	-0.13990502
133	0x3e3074c2	0.1723204
134	0xbe4f0548	-0.20216858
135	0xbe2d0b32	-0.16898802
136	0x3d89bbe9	0.06725294
137	0xbd185471	-0.037189905
138	0xbc840605	-0.016116152
139	0x3dbe60fe	0.092958435
140	0x3e15258d	0.14565106
141	0x3de69b56	0.11260097
142	0xbe03518f	-0.12824081
143	0xbe8ca0f1	-0.2746654
144	0x3e1a039f	0.15040444
145	0x3e3ff36b	0.187452
146	0xbdb1c4cc	-0.08680114
147	0x3bcfd4a4	0.0063424874
148	0x3ddd252f	0.10798108
149	0x3e40b48b	0.18818872
150	0xbe4dbb11	-0.20090891
151	0x3dccd97e	0.10002421
152	0xbe21149c	-0.15730518
153	0x3e153eaf	0.14574693
154	0xbe010a02	-0.12601474
155	0xbdbc5880	-0.091965675
156	0xbd21e58b	-0.03952555
157	0xbe42e467	-0.19032441
158	0x3e8212cc	0.25404966
159	0x3e260a31	0.16214825
160	0x3e08c758	0.13357294
161	0xbe2df89a	-0.16989365
162	0xbdf8180b	-0.12113961
163	0xbe457ac0	-0.19285107
164	0x3d4681cf	0.04846364
165	0x3e042140	0.12903309
166	0x3e5e97ba	0.21737567
167	0xbd51641c	-0.051120862
168	0xbe17cb93	-0.14823751
169	0xbe2aaf6b	-0.16668479
170	0x3d006c26	0.03135314
171	0xbcedca7a	-0.029027212
172	0xbde6ecd3	-0.112756394
173	0x3e4fba8d	0.20286007
174	0xbe1e0f9e	-0.15435645
175	0x3e503ef4	0.20336515
176	0xbe42d0e2	-0.19024995
177	0xbe492545	-0.19643123
178	0xbcfc104c	-0.03076949
179	0xbe8a0991	-0.26960424
180	0xbddac26d	-0.10681615
181	0x3e27c082	0.1638203
182	0xbdc063dc	-0.09394047
183	0x3e1b7353	0.15180711
184	0x3e12ff5f	0.14355229
185	0xbe197245	-0.14984997
186	0x3e032bce	0.12809679
187	0x3d946e6a	0.07247622
188	0xbe152390	-0.14564347
189	0xbe7f0815	-0.24905427
190	0xbd8d2791	-0.06892312
191	0x3dca5f0d	0.09881411
192	0x3e587084	0.21136671
193	0xbe5c785f	-0.21530293
194	0x3e18aaad	0.14908858
195	0x3d0b46d6	0.0340031
196	0xbdc69e07	-0.0969811
197	0x3e106faa	0.14105096
198	0x3e472cf4	0.19450742
199	0x3e1f3050	0.15545774
200	0xbe17b736	-0.14815983
201	0xbe964e30	-0.29356527
202	0xbe266de5	-0.16252859
203	0xbd9c0a8a	-0.07619198
204	0x3d78c481	0.060734276
205	0x3e20d3f5	0.15705855
206	0x3e36619c	0.17810673
207	0x3d19dd13	0.03756435
208	0xbd409fca	-0.047027387
209	0xbd90e6e6	-0.070752904
210	0xbd206c34	-0.03916569
211	0x3e748afc	0.23881143
212	0x3e64f90d	0.2236063
213	0x3e1ff116	0.1561931
214	0x3e9596f6	0.29216737
215	0x3e0f93ec	0.14021271
216	0xbe22a3be	-0.15882775
217	0xbe0f42d0	-0.1399033
218	0xbe47ad5e	-0.19499728
219	0xbd0f1052	-0.034927674
220	0x3deaf3dc	0.11472294
221	0xbd8b33aa	-0.067969635
222	0xbe08c64e	-0.13356897
223	0xbd9c78a7	-0.076402
224	0xbda399e5	-0.079883374
225	0xbe25a5eb	-0.16176574
226	0x3e859a98	0.26094508
227	0xbcec061a	-0.028811503
228	0xbd601d6d	-0.054715563
229	0xbd7eb46b	-0.06218378
230	0xbddaf92a	-0.106920555
231	0x3e375aae	0.17905685
232	0xbe2e7e12	-0.1704028
233	0xbcf372a1	-0.029717745
234	0x3c4bc5bd	0.012437281
235	0xbdb30d72	-0.08742799
236	0xbe78b442	-0.24287513
237	0xbe9b075e	-0.30279058
238	0x3e562d52	0.20915726
239	0x3e1ac057	0.15112434
240	0x3e17b036	0.14813313
241	0xbe0badc6	-0.13640508
242	0x3de749b6	0.11293356
243	0xbca53d4f	-0.020170836
244	0x3e25ae64	0.16179806
245	0xbe042e87	-0.12908374
246	0x3e8a938e	0.270657
247	0xbd3336fb	-0.043753605
248	0x3e4d851b	0.20070307
249	0xbe30066f	-0.17189954
250	0x3e0817ff	0.13290404
251	0x3db2b90f	0.087267034
252	0xbdaeeb85	-0.085410155
253	0xbe8d78f3	-0.2763134
254	0xbe46d442	-0.19416907
255	0xbd4f23b2	-0.05057115

fc2.bias f4 [10]
0	0x3d04dba3	0.032436024
1	0x3e634ed0	0.22198033
2	0x3d7f1e9e	0.06228506
3	0x3ceab576	0.02865098
4	0xbd667cac	-0.05627124
5	0xbe5a2ceb	-0.21306197
6	0xbde0d9b2	-0.10979022
7	0xbe346ae6	-0.17618904
8	0x3dd1c875	0.10243312
9	0xbdf8be2e	-0.12145649
